ppo_model-v1.pth (torch, 21885 bytes, 6 tensors)

backbone.0.weight f4 [64, 3]
000000 a0 00 63 be 19 39 cc 3d 2e fd 5a be af 1d ae be
       -0.22168207 0.09971828 -0.21385643 -0.34007022
000010 70 75 73 be f0 41 cb 3d 50 6f ed bd 88 6d 01 3e
       -0.23775268 0.09924686 -0.11593497 0.12639439
000020 56 30 8c be ed b4 05 be 0b ce b6 3d ee b7 27 bc
       -0.27380627 -0.13057299 0.08926018 -0.010236723
000030 e9 c6 a0 3e d6 83 33 3d c7 d5 9a be 3d 8a ab bd
       0.31401756 0.0438269 -0.30241224 -0.08375976
000040 bc 6b 74 be a1 ed e4 3d a3 44 04 bf e1 e1 ac 3c
       -0.23869222 0.111781366 -0.5166723 0.021103801
000050 84 02 52 3b 52 b4 50 be be e5 8a 3e 94 2c 72 bb
       0.0032044956 -0.20381287 0.27128404 -0.003695284
000060 5f 02 79 3e 05 11 aa 3e 9b 2e 8e 3c fa cc 4c 3e
       0.24317311 0.3321611 0.017356208 0.20000067
000070 a3 51 97 3d 1a fd 19 3e 2c 8e e1 3c 9c 30 70 bd
       0.07388618 0.15037957 0.027533613 -0.058640108
000080 ef 73 2c 3e 3d 83 8d be 79 e2 e9 bd 85 8b a8 bc
       0.168411 -0.2763919 -0.11420149 -0.02057434
000090 1b 66 25 be ae 87 a4 bd 56 40 6c bd 90 a1 dd bd
       -0.16152231 -0.08033691 -0.057678543 -0.10821831
0000a0 3e 21 ab 3e 86 24 18 bc d8 b5 8c 3e 26 82 1e 3e
       0.334238 -0.009286052 0.27482486 0.15479335
0000b0 2f 1e 98 bc d0 ba 8b bd e1 1a 4e 3e 30 c3 9c 3d
       -0.01856908 -0.06822741 0.20127441 0.076544166
0000c0 af c8 15 3e 7e fc a1 bd a6 7e cf 3d e7 49 83 be
       0.14627336 -0.07909487 0.10131578 -0.2564232
0000d0 7f 02 a8 3d e0 45 1e 3e df 99 04 bf cd 9c 54 be
       0.08203601 0.15456343 -0.5179729 -0.2076294
0000e0 4e f6 8f 3c 9d 98 ec be f2 8f 60 3b 46 39 c5 bd
       0.017573502 -0.46210185 0.0034265486 -0.09630065
0000f0 bc 1e 94 bd 7e 6e 0e 3c a6 0b 72 3e a6 cb 3e be
       -0.072324246 0.008693336 0.23637256 -0.18632373
000100 61 d0 90 3d 48 62 df bd 7a ba 93 3e fa 35 83 be
       0.07070995 -0.109074175 0.28853208 -0.25627118
000110 b4 dc 60 3d 66 e0 29 3e 11 00 ef 3c b0 54 27 3c
       0.05489798 0.16589507 0.029174836 0.010213062
000120 65 b8 dc ba 02 19 f8 3d 1f 0e a0 be 9b b6 ef bd
       -0.0016839622 0.12114145 -0.31260774 -0.11704751
000130 55 1d ae 3d 56 f6 8f 3d 1a fa d4 bc 36 d9 21 3d
       0.085016884 0.07029407 -0.025998164 0.03951379
000140 8b 45 eb 3d 20 b5 87 bd 7e a2 dd 3d c2 3f dd bc
       0.11487874 -0.06626344 0.108220086 -0.027007941
000150 96 28 1f 3d fe 91 2b be 04 90 9d bd f0 50 cf 3d
       0.038857065 -0.1675491 -0.076934844 0.101228595
000160 49 64 05 3e ac e5 7a 3e 1f a1 7b 3d c8 d7 6f 3e
       0.13026537 0.24501675 0.061432954 0.23422158
000170 e9 5e fd 3d 9b 17 4d be 2b 89 e5 bd 97 c6 d2 bb
       0.12371618 -0.20028536 -0.11207803 -0.006432365
000180 4d e8 7b be 25 f4 06 3d c9 b1 ea 3b 46 36 9d be
       -0.24600334 0.032947678 0.007162307 -0.3070547
000190 26 1f 61 bd d6 38 af bd 07 8d 8c bd 3c aa a4 3e
       -0.054961346 -0.085557625 -0.06862836 0.3216113
0001a0 e5 11 86 3e ce 1c cc 3e 7e b3 f0 3a af b6 f8 bb
       0.26185527 0.39865726 0.001836404 -0.007590137
0001b0 c1 5d d6 be 81 d3 fd bd 46 5e ff bc 86 c8 d8 3e
       -0.41868404 -0.12393857 -0.031172883 0.42340487
0001c0 a3 85 62 bd 5b 23 c6 3b 30 64 ee 3e 62 0a 93 3e
       -0.055303227 0.006046695 0.46560812 0.2871886
0001d0 99 c5 91 3c cb 5d 53 3e 3c a1 b9 bc 8a 0c a8 3d
       0.017794417 0.20641248 -0.02265989 0.08205517
0001e0 37 7d d7 bd 73 5c 76 be df 52 28 be 88 fd 4f 3d
       -0.1052193 -0.24058704 -0.16437863 0.050778896
0001f0 ae d4 b0 bd 9f ac 35 3e 5a c5 c7 bc 20 50 45 bd
       -0.086343154 0.17741631 -0.024386097 -0.048172116
000200 4d 21 0c 3e 04 8f ad 3d 3a 58 ee bb a2 a4 04 3d
       0.13684578 0.08474544 -0.007273701 0.03238357
000210 99 10 b4 3e 0c 4e 28 be be 60 21 bd 4d 68 10 3d
       0.35168913 -0.16436023 -0.0393989 0.03525572
000220 e9 db 31 be 29 b7 d3 be 3a c0 25 3d 1f 17 45 3e
       -0.17369045 -0.41350678 0.040466525 0.19247101
000230 f5 92 f5 3d a1 94 c3 3c 8d bc f8 bd a3 7f 17 3e
       0.119909205 0.023874583 -0.12145338 0.14794783
000240 53 b2 a5 3d 0d ef 3c be 8b 41 be bd 83 56 27 be
       0.08090653 -0.18450566 -0.09289845 -0.16341595
000250 6e fc 14 3e 6e 1e 96 bc a4 3c 0c 3e 2a b3 46 3c
       0.1454942 -0.018325057 0.13695008 0.012127677
000260 92 ab e5 3d 07 c3 ca be 07 0e 1e 3e 3d f8 c7 3d
       0.11214365 -0.3960192 0.15435039 0.097641446
000270 f6 0e 0d be 49 30 98 bd 5a b2 1e 3c 44 f8 88 3e
       -0.13775238 -0.07431085 0.009686077 0.26751912
000280 11 c7 1b 3e 3d 78 26 be a7 df a5 bd e8 8d aa 3d
       0.15212657 -0.16256805 -0.08099299 0.08327848
000290 23 55 b5 bd c7 19 57 bd 49 a9 8d 3c 92 79 94 be
       -0.08854129 -0.052514818 0.017292636 -0.28999
0002a0 ff 70 09 bd e5 3d 8f bd 14 2c 02 3e f5 88 89 bd
       -0.033555027 -0.06994227 0.12712127 -0.067155756
0002b0 b6 07 21 3e 3a ea b2 bd d8 b4 45 be 20 04 d7 3d
       0.15725598 -0.087360814 -0.19307268 0.10498834
0002c0 86 a4 a5 bd 53 d8 9a 3e 84 6b a5 bd db a6 40 3e
       -0.08088021 0.30243167 -0.080771476 0.1881365
0002d0 00 57 72 3e 86 c3 7e bb 92 7c 7a 3d 74 6e 91 3e
       0.23666 -0.0038873865 0.061153956 0.28404582
0002e0 d8 d8 13 3e fd af 31 be 60 d1 c3 3d 20 48 3b be
       0.14438188 -0.1735229 0.095614195 -0.18289232
0002f0 34 f5 1f 3c c5 da 46 3e 66 c8 d9 3d d0 74 24 be
       0.009763051 0.19419391 0.10633926 -0.16060185

backbone.0.bias f4 [64]
000000 9f b4 e7 3d f9 a8 8d 3d dd 0f dd 3d ff dc ff 3d
       0.113137476 0.069169946 0.10794041 0.124933235
000010 94 13 c0 bd 5b 5d ce 3d 67 8a 87 3d d5 bd b7 3d
       -0.09378734 0.100764 0.06618195 0.089717545
000020 6e 4a 80 bd cb 89 40 bd b2 fc c8 3c fb 86 dc 3d
       -0.06264196 -0.04700641 0.024534557 0.10767933
000030 23 00 f7 3d 5a c6 e7 3d 73 e8 f5 bd a7 c5 d6 3d
       0.12060573 0.113171294 -0.12007227 0.10486918
000040 65 4a b3 bd 04 66 ca 3d 9e e3 ee 3d c5 64 cc 3d
       -0.08754424 0.09882739 0.11664508 0.09980158
000050 f2 8e 8d bd 0f bd b4 3c 87 ab e4 bd b4 da e5 bd
       -0.0691203 0.022062806 -0.11165529 -0.11223355
000060 70 9c a0 3d b1 48 0d bd e1 58 bc bd a1 6b e7 3d
       0.07842338 -0.034493152 -0.0919664 0.112998255
000070 45 0c 8e 3d 4b bb d3 bd d6 1a b0 bd 0e 21 cb 3d
       0.06935934 -0.10338458 -0.085988685 0.09918414
000080 9f fb f0 3d 40 a0 c2 3d f2 28 31 bd 76 3e db bd
       0.11766743 0.095032215 -0.04325194 -0.10705273
000090 a9 ff e8 3d de cc c2 bd de 9c bb bd da 4a d2 bd
       0.11376888 -0.095117316 -0.091607794 -0.10268183
0000a0 6e fb b7 3d 18 63 ed 3c 5a a3 90 bd f3 0e e2 bd
       0.08983503 0.028977916 -0.07062407 -0.110380076
0000b0 00 21 d1 bd 56 d6 87 bd b9 da ea bd eb be c0 bd
       -0.102113724 -0.06632678 -0.11467499 -0.09411415
0000c0 22 e7 b2 bd bf ef d2 3d b4 fe fb bd a9 c4 02 3e
       -0.08735491 0.10299634 -0.1230444 0.12770332
0000d0 1d 1c 00 3e 54 d5 15 be 3f 75 ab bb 67 bd 8c bd
       0.12510724 -0.1463216 -0.0052324827 -0.06872063
0000e0 59 24 9a bd 5e dc db 3d ee 9c ea 3d 3c 70 e0 bd
       -0.07526464 0.10735391 0.11455713 -0.10958907
0000f0 1e 9e d1 bd b2 ad ea bd e7 98 d0 bd 23 6a 20 3c
       -0.102352366 -0.11458911 -0.10185414 0.00979093

backbone.2.weight f4 [64, 64]
000000 45 f5 c8 3d 09 18 50 3d 06 b5 48 be a2 60 5c bd
       0.098124065 0.05080417 -0.19600305 -0.053803094
000010 99 4d 08 3e f0 36 89 3e 80 55 7a 3e 44 19 13 be
       0.13310851 0.26799726 0.24446678 -0.14365107
000020 2b 60 50 3e d3 45 fb bc 5d 37 1e 3e ef 08 e9 3c
       0.20349185 -0.030672943 0.15450807 0.028446643
000030 9a b2 17 be 6e a7 81 3e 74 2a 03 bf 8e f5 a1 3c
       -0.14814225 0.2532305 -0.51236653 0.01977041
000040 6c e0 ff bd 38 53 9b bd a2 2f 8a 3e f5 67 2d 3e
       -0.12493977 -0.07584232 0.26989466 0.16934188
000050 47 c3 1d 3d 12 b3 c7 bc 1e 40 b6 bc 12 bb 1e 3e
       0.03851631 -0.02437738 -0.02224737 0.15501049
000060 a0 dc e8 bc 1e 51 b7 3e 0c 7a 91 3d 71 fc d1 bd
       -0.028425515 0.35804075 0.07103357 -0.102532275
000070 99 79 a2 bd c6 78 d5 3d e3 04 28 3e ba da 29 be
       -0.07933349 0.10423426 0.16408114 -0.16587344
000080 d0 d9 df 3d 7b b4 7c 3e 01 a7 9f 3c 14 63 d7 bb
       0.10930216 0.24678223 0.019488813 -0.0065730903
000090 a8 41 8c 3e 18 f0 b8 bd dc ab b0 3d df a7 99 3e
       0.27393842 -0.09030169 0.086265296 0.30010888
0000a0 61 73 23 bd 67 4b 19 be db 91 54 3e 21 3f 46 be
       -0.039904956 -0.1497017 0.20758764 -0.1936002
0000b0 02 cb b5 3e 7e 72 23 be e7 2f fa 3b 69 6d 87 bd
       0.35506445 -0.15961644 0.007635105 -0.06612665
0000c0 78 fa c6 be 03 65 f2 bb dd 43 37 be 7f 7d ab bd
       -0.38862967 -0.0073972954 -0.17896982 -0.08373546
0000d0 58 d4 88 be 49 fc 45 3d 87 c6 a2 be 3c f9 22 3e
       -0.26724505 0.0483363 -0.3179209 0.15915388
0000e0 1c d4 9d 3c c4 c2 be 3d df 13 2e be bb 5b 18 be
       0.01926618 0.09314492 -0.16999768 -0.14878742
0000f0 68 4a 3b bd 84 d1 80 3d 08 52 8b bd d2 df 93 bc
       -0.045725256 0.06289962 -0.068027556 -0.018051062
000100 6e 8d 1c bd 4c 4b 18 be d7 77 d5 3d 47 42 05 be
       -0.038220815 -0.14872473 0.10423248 -0.13013564
000110 09 99 15 bf 4b 91 a8 3d ba ab 9d bd f6 ee 8d 3e
       -0.5843664 0.082308374 -0.0769877 0.27721375
000120 2d 3e 43 3e c3 4f 53 3b e4 c9 48 3e 20 5c 44 3e
       0.19066687 0.0032243587 0.19608265 0.19175768
000130 28 d0 20 bd 42 df 84 3e 89 23 e9 bd d1 b9 0c bd
       -0.039261013 0.25951582 -0.11383731 -0.034356896
000140 b7 d8 60 be a2 2f a4 bc 01 f1 99 bd 25 32 6d bc
       -0.2195767 -0.020042244 -0.07516671 -0.014477287
000150 ad de 0d 3e 2d f4 99 3c 77 42 81 bb 1f cb de bd
       0.13854475 0.01879319 -0.003944691 -0.10878586
000160 c4 fa bd 3d a4 98 54 3e 31 9b 0c bd 4d d3 46 3e
       0.09276345 0.20761353 -0.03432769 0.19416542
000170 de 9f d6 bd d7 df 80 be 09 af 6c be 9c ab 3d be
       -0.10479711 -0.25170776 -0.23113646 -0.18522495
000180 dd e6 c6 3e aa 95 79 be 04 de 19 3e 8e 3d e4 bc
       0.3884801 -0.24373499 0.15026098 -0.027861383
000190 cb 80 3b 3e 0a e6 9b 3d b0 e3 ac be 97 3c d0 3d
       0.1831085 0.07612236 -0.33767462 0.101678066
0001a0 5d f8 fc 3d 5f 2c 85 be 76 b1 07 be e2 cb 5e bd
       0.12352059 -0.26010415 -0.1325129 -0.054393657
0001b0 55 b8 27 be 47 9e d3 bd 19 56 96 bd 70 02 12 be
       -0.16378911 -0.103329234 -0.073406406 -0.14258742
0001c0 5b e3 24 3d 64 b8 85 3e 18 14 17 be ac e6 72 3e
       0.040255886 0.2611724 -0.14753759 0.23720807
0001d0 7b 7b d5 3d a0 95 05 be 79 d2 50 3e 75 74 3e 3d
       0.10423943 -0.13045359 0.20392789 0.04649778
0001e0 24 a5 da bd a3 04 da 3e e4 67 bf 3e 53 dc 15 be
       -0.10676029 0.42581663 0.3738395 -0.14634828
0001f0 04 24 85 bd 11 f0 b1 be a3 cf b3 be dd 99 cd 3d
       -0.0650101 -0.3475347 -0.35119352 0.10039113
000200 83 f1 8d bd 41 a8 ce 3d b9 c9 90 3e 09 47 f1 bd
       -0.0693083 0.10090686 0.28278902 -0.11781127
000210 87 79 11 bd 1a 35 92 3d db dc aa be 4d 43 bc bc
       -0.035516288 0.071390346 -0.33371624 -0.02298131
000220 3a 42 eb 3e 18 f1 3b 3e 2e f1 1f be b4 44 0b be
       0.45948964 0.18353689 -0.15619346 -0.13600427
000230 20 c6 db 3e df 78 88 be 61 68 86 3e 32 5f ef bd
       0.42924595 -0.26654717 0.2625151 -0.11688079
000240 ab 1b ae bd 0d bf 28 bd 20 b7 d1 be 06 cd 43 be
       -0.08501371 -0.041197825 -0.40960026 -0.19121179
000250 cf 79 a4 bd 94 6b cf be 9e fb df 3c e4 73 76 3e
       -0.08031046 -0.40511763 0.02734166 0.24067646
000260 04 d0 d2 bd e0 c9 d9 3e c4 90 a1 bd f0 66 81 bd
       -0.10293582 0.4253683 -0.0788894 -0.06318462
000270 46 1f 84 bc 18 9a 13 3e 85 70 21 3e c9 27 f0 bd
       -0.016128194 0.14414251 0.15765579 -0.117263384
000280 8d f6 70 be 5d b6 9e bd f5 bd ad 3c 9f 08 10 3e
       -0.23531552 -0.07749627 0.021208743 0.14065789
000290 d8 5c 0f be 50 3a 52 3e 5a d9 d8 3e 7d 34 e3 3d
       -0.14000261 0.20530057 0.42353326 0.11093996
0002a0 7b 3f 8c be 4c 61 d6 3d f8 39 aa bc 4a 02 56 bd
       -0.27392182 0.10467777 -0.020779595 -0.052248277
0002b0 fe e1 db 3d 12 8a ed bd b1 c6 60 be e5 53 82 bd
       0.10736464 -0.115986004 -0.21950795 -0.06363658
0002c0 92 5e 28 be 8d 78 c5 3d e5 1d 98 bc c8 1c d5 be
       -0.16442326 0.09642134 -0.018568942 -0.4162352
0002d0 6d a6 2c bd 01 29 eb bc 6a e6 fa bc 53 52 34 3d
       -0.042150903 -0.028706076 -0.030627448 0.044023823
0002e0 cd 77 39 be 50 76 61 3d f5 09 53 be 36 85 c3 3d
       -0.18112107 0.055044472 -0.20609267 0.09546892
0002f0 5c 95 33 3e 3d dd c5 3d 57 fe 2b 3e 05 2f 53 3e
       0.17537445 0.096613385 0.16796242 0.20623405
000300 12 6f 50 3b 3e 75 87 3e bd a3 67 3e b8 f6 c6 3e
       0.0031804484 0.26456636 0.22621055 0.38860106
000310 67 94 46 be d4 f6 26 be 90 58 3a 3d 0d f1 5e be
       -0.19392549 -0.16305095 0.045494616 -0.21771641
000320 49 72 7c 3d d9 02 ad be 17 2f c6 3d a0 cd 25 3e
       0.06163243 -0.33791235 0.096769504 0.16191721
000330 c3 aa a2 3e 63 1b 56 3e ba 69 9e be b5 2c cf bd
       0.31770906 0.20908885 -0.30940038 -0.10115949
000340 83 2f 99 be 5f 0e 5c 3d e2 b3 6b 3d 76 67 cc bd
       -0.2991906 0.053724643 0.057544596 -0.09980671
000350 29 02 77 bd 5b 12 9c 3d 01 6d c6 bd 8e f3 49 bd
       -0.060304794 0.076206885 -0.096887596 -0.049304537
000360 02 e9 73 3e 6b 3c 60 3c c5 c7 a8 bc 3b f9 4d 3f
       0.23819354 0.01368628 -0.02060307 0.8045842
000370 0f db 0d 3d 6d 9b d9 3d 5b 9c e2 bd 9b 6b 33 3d
       0.03463274 0.10625348 -0.11064979 0.043803792
000380 8d 28 c8 3e bf a5 0a 3e c3 da 12 3e dc 58 8f bd
       0.39093438 0.1353979 0.14341263 -0.069993705
000390 70 50 85 3d ea 60 81 be dd 83 a2 3d 8c 38 de bd
       0.06509483 -0.25269252 0.07935307 -0.10850629
0003a0 72 34 1f 3d 91 a8 2a 3e 2d e1 57 3d 1a 36 ae bd
       0.038868375 0.16665865 0.05270498 -0.08506413
0003b0 ab 45 59 be 9f 76 cd bd 5c d0 8b 3d 8e 86 6d bd
       -0.21217982 -0.10032391 0.06826851 -0.05798965
0003c0 8f 70 6f bc 58 ec 67 be 55 1d a6 3d 39 3d 83 bd
       -0.014614238 -0.22648752 0.081110634 -0.06408162
0003d0 86 69 9d bd f4 93 97 bd b9 b4 87 3e 1a 73 02 be
       -0.076861426 -0.07401267 0.26505068 -0.1273922
0003e0 0e d8 3a 3e 7f fb 8e be 01 24 f0 3d 6b 55 63 be
       0.18246481 -0.2792625 0.11725617 -0.22200553
0003f0 62 da 25 be 21 24 3e be 18 5b 1d be be 92 04 be
       -0.16196588 -0.1856847 -0.15366781 -0.12946603

backbone.2.bias f4 [64]
000000 30 56 d3 bc 54 a5 90 3d a7 78 9b bd ff 20 9f 3d
       -0.025797933 0.07062784 -0.07591372 0.077699654
000010 43 87 d9 bd 29 e9 a7 bd 57 21 cb bd 55 9e 8e bd
       -0.10621502 -0.08198769 -0.099184684 -0.06963793
000020 b5 cc b7 3d 61 f6 9d bd 7e 3e 97 3d c6 ca a7 bd
       0.08974592 -0.07713009 0.07384966 -0.08192973
000030 a9 5c bd bd 2a 63 d3 bd 9d 7e 60 bd c4 64 8e 3d
       -0.09246189 -0.103216484 -0.054808248 0.06952813
000040 e8 0e 8f bd bc 75 8d 3d 02 ff a7 bd e1 34 9e bd
       -0.06985265 0.06907222 -0.08202936 -0.077249296
000050 87 84 a0 3d 35 df 88 bd 68 9b ab bd 83 48 b3 bd
       0.078377776 -0.06683198 -0.08379251 -0.08754065
000060 c2 42 b8 bd 28 f4 b6 3d a4 7f 9c bd 1b 6e aa bd
       -0.08997108 0.08933288 -0.07641533 -0.08321782
000070 d5 e3 72 3d 53 06 d3 3d eb 6e b9 3d a9 56 9d 3d
       0.05929931 0.103039406 0.09054359 0.07682545
000080 e8 f6 a9 bd 71 63 9e bd 9c ae b4 3d 4d 52 a3 3d
       -0.08299047 -0.07733811 0.088223666 0.07974682
000090 78 aa ad bd 13 b7 bb 3d 8d 9a f2 3d 1f 1c d9 3d
       -0.0847978 0.09165778 0.118458845 0.10601067
0000a0 93 e1 8e bd 86 6c 96 bd 27 d9 b9 bd 1e 41 9b 3d
       -0.069766186 -0.07344918 -0.09074622 0.075807795
0000b0 a6 13 97 3d 3c 6a 99 3d 6e 86 be bd 70 dc a0 3d
       0.073767945 0.07490966 -0.09302984 0.07854545
0000c0 4a c5 8c 3d 1f 64 82 3d d6 81 9e bd 6e 9b a9 3d
       0.068735674 0.06366753 -0.07739608 0.08281599
0000d0 c0 f9 95 3d 8a bd 9e 3d c5 bf cc 3d 3a 15 8e bd
       0.07323027 0.077509955 0.09997515 -0.069376424
0000e0 76 8f 8f 3d c1 83 8c bd 82 bb f2 bd 20 11 bb 3d
       0.07009785 -0.068610676 -0.118521705 0.09134126
0000f0 1a cf 80 bd 0d af b1 bd e1 81 b8 bd 9b 78 98 3d
       -0.062895015 -0.086759664 -0.090091474 0.07444879

actor_mean.weight f4 [1, 64]
000000 10 29 22 bc 5d d7 86 bc a8 fe a9 3b 51 29 3d bc
       -0.009897485 -0.016460115 0.005187828 -0.011545495
000010 c4 20 f7 3b 18 60 0b bb 0e 7d 83 bb cf 06 21 3b
       0.0075417478 -0.0021266993 -0.0040127104 0.0024570709
000020 7f 31 58 3c a3 12 44 3c 35 3a 3c bc 2a ba 11 3b
       0.013195395 0.011967334 -0.011488487 0.0022236207
000030 0c 54 0d bb cf 29 46 bb 12 45 a8 3b c2 4d f0 bb
       -0.0021564988 -0.0030237322 0.005135187 -0.007333488
000040 3b 29 25 bc 3d 84 e3 3b e6 7a 1d 3c c0 82 2c 3b
       -0.010080631 0.0069432543 0.009611821 0.002632305
000050 f1 ad b5 3b 49 94 99 bb 87 aa 09 3c 7b df 69 ba
       0.005544417 -0.0046868664 0.008402473 -0.0008921546
000060 44 03 b7 3b 91 31 07 ba 9a 15 27 3b c9 2f 87 3b
       0.005585106 -0.0005157227 0.0025495053 0.0041255695
000070 6b 05 f5 3a 77 5b ed bb 03 76 18 3c ec 4a f4 3a
       0.0018693631 -0.0072435695 0.00930548 0.0018638051
000080 44 6a cd 3b 27 4e 2d bb db ac 62 bc 80 39 98 3a
       0.0062687714 -0.0026444288 -0.013835157 0.0011613816
000090 94 81 30 39 d8 19 b5 b9 99 2c c7 3a 66 02 a9 3b
       0.0001683294 -0.00034542265 0.0015195786 0.0051577566
0000a0 a7 75 86 3a a6 bf 13 3c cb b1 2b bb 3d 6e 0d 3a
       0.0010258452 0.0090178605 -0.0026198502 0.000539515
0000b0 98 be 99 bb 8d a3 ba 3b 8d b7 08 3c 68 4b 10 bc
       -0.00469191 0.0056957663 0.008344543 -0.008807041
0000c0 f0 d4 4e 3c 94 3f 41 3b d6 fc ee 3a 29 0f 3f 3a
       0.01262401 0.0029487358 0.001823331 0.0007288331
0000d0 bd 3e d4 3a 62 76 b9 bb 18 b4 95 3a 94 44 08 3c
       0.0016193014 -0.0056598643 0.001142147 0.008317132
0000e0 1a 31 8f 39 97 ea be 3b 92 9d c7 38 c7 cd d6 bb
       0.0002731167 0.005826305 9.518409e-05 -0.0065552923
0000f0 2b 9e 32 3c 68 d2 01 bb 21 6b ce 3a 43 63 f1 3b
       0.010901968 -0.001980925 0.001574848 0.0073665692

critic_head.weight f4 [1, 64]
000000 b4 1c 32 bc 81 a2 90 be f2 4b 09 3e f5 96 41 be
       -0.010871101 -0.2824898 0.13407877 -0.18905242
000010 70 09 df 3d f3 b0 4e 3e f3 bb 0e 3e af e9 60 3e
       0.10890472 0.20184688 0.13938884 0.21964143
000020 0c c6 09 be 41 29 6b 3e 47 83 7f be b0 ab 37 3e
       -0.13454455 0.22964956 -0.24952422 0.17936587
000030 8e 14 17 3e ae f7 07 3e d4 27 c2 3c 2c 38 58 be
       0.14753935 0.13278076 0.023700632 -0.21115178
000040 55 c7 9a 3e 12 ec d2 be 46 2f 4a 3e ad 19 5d 3e
       0.30230203 -0.41195732 0.19744596 0.21591826
000050 db 63 4d be 1d 30 fe 3e 17 9d 23 3e 6a 96 2c 3e
       -0.20057623 0.49646083 0.15977894 0.16854253
000060 7b 74 16 3e ab 6e 49 be 1a 61 45 3e d0 17 1e 3e
       0.14692871 -0.19671123 0.19275323 0.15438771
000070 f0 42 42 bd 23 13 ee bd 9d e2 d7 bd 8e 5f 5c be
       -0.047427118 -0.11624744 -0.1054127 -0.21520826
000080 46 3d 26 3e 6f 06 59 3e 1d 56 cd bd 4c 53 51 be
       0.16234311 0.2119386 -0.100261904 -0.20441931
000090 f0 3d 28 3e 1d c0 1c be 1e 81 ed bd e3 80 d2 bd
       0.16429877 -0.1530766 -0.11596893 -0.102784894
0000a0 dd 5c 51 3e fa 47 40 3e 71 af 1a 3e c6 92 96 be
       0.20445581 0.18777457 0.15105988 -0.29408854
0000b0 95 69 7c be 36 4c b7 be 21 45 08 3e 74 0c 62 be
       -0.24649651 -0.35800332 0.1330762 -0.22075063
0000c0 fd a4 cb be 5b 17 8e bd f4 4c 5d 3e 3c 5a 24 be
       -0.39774314 -0.069380485 0.21611387 -0.16050047
0000d0 f8 d0 7b be 1d 31 51 be ae ef 01 be 25 85 97 3e
       -0.24591434 -0.20428891 -0.12689087 0.2959377
0000e0 df 2c aa be 14 01 70 3e 72 90 f3 3d 81 a4 15 be
       -0.3323736 0.23437911 0.11892785 -0.14613535
0000f0 a7 cb 8f 3e 92 0c 28 3e 4f ed fc 3d 7e 88 65 be
       0.28085062 0.16411045 0.123499505 -0.22415349
